Moving Environment/Assets/3DBall-3499991.onnx (onnx, 140120 bytes, 15 tensors)

85 f4 [60]
0.10905255 0.47863343 0.482087 0.2873244 0.11562327 0.4322649 0.43985832 0.29495203
0.095264696 0.38977462 0.39696792 0.25613713 0.10343906 0.3952563 0.40341055 0.26546663
0.08104237 0.44897395 0.45217207 0.27242172 0.091852665 0.43824953 0.44281003 0.26112476
0.07149918 0.47094887 0.47272554 0.2937981 0.083404146 0.39095986 0.39641273 0.26170057
0.06572625 0.4332543 0.43570146 0.30037442 0.07383894 0.35705492 0.36229232 0.27406007
0.06074967 0.36512718 0.36853227 0.2766369 0.06852266 0.36363977 0.36807218 0.26785424
0.054886136 0.2729096 0.27750346 0.2198453 0.061817463 0.31153035 0.3163158 0.2370164
0.04736013 0.35080677 0.35309696 0.23983729
00000000: f156 df3d 710f f53e 1bd4 f63e 2f1c 933e
00000010: e5cb ec3d d351 dd3e 1c35 e13e f403 973e
00000020: 231a c33d 8a90 c73e 613f cb3e 6824 833e
00000030: dcd7 d33d 095f ca3e d48b ce3e 3eeb 873e
00000040: 8bf9 a53d eadf e53e 1983 e73e dc7a 8b3e
00000050: 401d bc3d 3e62 e03e ffb7 e23e 25b2 853e
00000060: 296e 923d 3620 f13e 1509 f23e b46c 963e
00000070: cbcf aa3d e42b c83e 9cf6 ca3e 9efd 853e
00000080: 7c9b 863d 82d3 dd3e 4314 df3e adca 993e
00000090: df38 973d e7cf b63e 617e b93e 9a51 8c3e
000000a0: a5d4 783d f3f1 ba3e 43b0 bc3e 5aa3 8d3e
000000b0: 9c55 8c3d fe2e ba3e f573 bc3e 3124 893e
000000c0: 49d0 603d cfba 8b3e ef14 8e3e 201f 613e
000000d0: 4f34 7d3d e880 9f3e 25f4 a13e 6db4 723e
000000e0: b2fc 413d f29c b33e 20c9 b43e e897 753e

88 f4 [60]
0.10310145 0.34346366 0.35455573 0.21739723 0.08856544 0.26335022 0.27568734 0.18506795
0.076254934 0.3635904 0.3690288 0.23103304 0.07932901 0.31498477 0.32263902 0.19242607
0.065545596 0.33145633 0.3362653 0.19563578 0.077019915 0.34024465 0.346533 0.2017875
0.059741348 0.2424927 0.24884976 0.19139102 0.07079388 0.23585406 0.24501106 0.18146163
0.05387696 0.3190187 0.32251602 0.1991033 0.06527145 0.20109387 0.21057105 0.17278115
0.050163653 0.2377182 0.24231547 0.18887183 0.061126124 0.19021562 0.19907475 0.16093999
0.045893356 0.22576882 0.22987649 0.18117233 0.054485906 0.19849774 0.2052516 0.15552485
0.03902935 0.26318192 0.265628 0.19059938
00000000: da26 d33d 78da af3e 5488 b53e 619d 5e3e
00000010: cc61 b53d d7d5 863e e426 8d3e 7482 3d3e
00000020: 8c2b 9c3d 8528 ba3e 58f1 bc3e ed93 6c3e
00000030: 3f77 a23d af45 a13e f130 a53e 570b 453e
00000040: c53c 863d a5b4 a93e f72a ac3e bf54 483e
00000050: 9ebc 9d3d 8c34 ae3e c66c b13e 62a1 4e3e
00000060: 58b3 743d 0250 783e 79d2 7e3e 02fc 433e
00000070: 62fc 903d ba83 713e 2ee4 7a3e 14d1 393e
00000080: 16ae 5c3d 6b56 a33e d220 a53e bce1 4b3e
00000090: 0aad 853d 8deb 4d3e f09f 573e 8bed 303e
000000a0: 6778 4d3d 666c 733e 8c21 783e 9e67 413e
000000b0: 635f 7a3d e2c7 423e 40da 4b3e 74cd 243e
000000c0: acfa 3b3d f12f 673e be64 6b3e 3d85 393e
000000d0: 9d2c 5f3d fe42 4b3e 7a2d 523e e841 1f3e
000000e0: 3ddd 1f3d c8bf 863e 6500 883e 7c2c 433e

91 f4 [8]
0.30673176 0.90347755 0.16482933 0.31494483 0.3827326 0.110986315 0.1129346 0.28112015
00000000: f20b 9d3e 4e4a 673f 05c9 283e 7340 a13e
00000010: 87f5 c33e cb4c e33d 414a e73d fbee 8f3e

action_model._discrete_distribution.branches.0.bias f4 [4]
0.047851067 0.017839927 -0.09300512 -0.022882482
00000000: 7bff 433d 0a25 923c 7879 bebd 0b74 bbbc

action_model._discrete_distribution.branches.0.weight f4 [4, 128]
-0.0029228278 0.026835946 0.073558964 0.001339566 -0.13374482 0.13737345 -0.04961146 0.099543855
0.012838364 -0.03670225 0.08735833 -0.055228356 0.048151143 0.064688005 -0.01783461 -0.3100212
-0.3184812 -0.013953439 -0.012065578 0.06557245 0.10176019 0.046515957 -0.06896163 -0.0052980324
-0.12029402 0.031205926 -0.027216667 0.035885368 -0.0316146 0.17797604 0.078859225 -0.070465684
-0.12069534 -0.14695181 -0.14163089 0.15712254 -0.20111571 -0.04076403 -0.21327813 -0.30586547
0.110443585 -0.3394038 0.01863767 -0.2075474 0.1256552 0.0069156433 -0.17011897 -0.11033265
0.04352457 0.09280799 -0.012408966 0.013879584 -0.013799467 -0.15688556 0.0015878405 0.0042380504
0.20859464 -0.024864128 0.11353372 -0.11624014 -0.2613987 -0.015686147 -0.002067341 -0.04751864
0.28987208 0.006511067 -0.0723953 -0.022833144 -0.21683659 0.05044701 0.015466448 -0.105578646
-0.3335446 0.044441115 0.056754414 0.1346393 -0.14188227 0.15648325 -0.02614418 0.083866954
-0.009676582 0.01668812 -0.092272826 -0.12458968 0.09464165 0.10769716 0.083549805 -0.20583017
0.09188969 0.090728275 -0.008398114 -0.26157597 -0.18532954 0.08285202 0.14597307 -0.2061875
0.0054939617 -0.3583932 0.07101454 -0.09885742 -0.07212775 0.05687149 -0.16005775 0.050836146
0.1430291 0.104520515 0.029587349 0.11938759 0.11728661 -0.0064178663 -0.19136922 0.14555176
-0.25443894 0.14149027 0.030096564 -0.3568701 0.1224682 -0.13859265 -0.16896944 0.12224306
-0.040991843 -0.18807825 -0.17121768 -0.10901447 -0.019922527 -0.11770033 -0.43356642 0.0558504
-0.06943562 0.09677071 -0.09383136 -0.19328718 0.08775908 -0.14667101 0.019964186 -0.08127802
0.004503276 -0.009229385 0.01771594 -0.021618962 0.065763205 0.077750534 -0.24700293 0.3305112
0.1897608 0.050321545 -0.42728803 -0.14347307 0.13387601 -0.24284343 -0.2074863 -0.06470064
0.17785326 0.15604545 0.11445012 0.003910956 0.11314327 -0.013379702 -0.2080206 -0.11045643
0.124816865 -0.034732092 0.121423624 -0.27745593 0.20359373 0.010447978 -0.00017652864 0.29357654
-0.22170205 0.2556816 -0.16815089 0.22933297 -0.3382152 0.093789004 0.20733266 0.07985075
0.09717332 -0.013018971 0.16347323 -0.17880091 -0.04417812 0.10953903 0.029824274 0.18332155
-0.33751914 -0.08301261 0.05671937 -0.16095895 0.23709786 0.02619947 0.16524434 0.21826768
-0.33282578 0.15253296 -0.045587596 0.10093917 0.19356568 -0.06452678 0.13877748 0.1331778
0.16411494 0.0313978 0.04389191 0.037742667 0.2705393 -0.06868091 0.17037775 -0.056142807
0.052978627 0.0049747466 0.16914433 0.21807244 0.05733607 0.032325257 -0.41405675 0.077938095
0.12178779 0.1034723 -0.035311114 0.26012525 0.15989539 -0.17317338 0.03302182 0.06462118
-0.18826361 0.08669428 -0.040877484 -0.14402956 -0.028052423 -0.019251643 0.1463939 0.13744
-0.0066674673 0.03976215 0.017759737 0.061536346 -0.17820817 0.06578029 0.077016324 -0.48084018
0.027122436 -0.08065457 -0.10921819 0.22291212 -0.07478988 0.17801714 0.17413925 -0.33744797
0.0842057 0.13072132 0.04588643 0.19738002 0.09820413 0.18949996 0.04184626 0.07257063
00000000: ea8c 3fbb 0fd7 db3c 15a6 963d 6094 af3a
00000010: 67f4 08be a0ab 0c3e 6335 4bbd a6dd cb3d
00000020: 0058 523c 1955 16bd ede8 b23d 2137 62bd
00000030: 223a 453d 257b 843d e319 92bc 19bb 9ebe
00000040: f80f a3be f79c 64bc b4ae 45bc d94a 863d
00000050: a667 d03d 8487 3e3d c13b 8dbd 1e9b adbb
00000060: b65c f6bd 92a3 ff3c 7df5 debc 89fc 123d
00000070: 507e 01bd 5a3f 363e f280 a13d 5050 90bd
00000080: 1e2f f7bd 897a 16be b007 11be bbe4 203e
00000090: 47f1 4dbe 2ff8 26bd 9565 5abe 669a 9cbe
000000a0: 3f30 e23d 56c6 adbe 07ae 983c 4e87 54be
000000b0: c2ab 003e 9f9c e23b ab33 2ebe 16f6 e1bd
000000c0: d246 323d 1e12 be3d fa4e 4bbc 3267 633c
000000d0: 2917 62bc 9ca6 20be 161f d03a 58df 8a3b
000000e0: d599 553e dbaf cbbc 5e84 e83d 4f0f eebd
000000f0: 0dd6 85be 3c80 80bc 3a7c 07bb e8a2 42bd
00000100: 1d6a 943e ca5a d53b fd43 94bd 930c bbbc
00000110: 690a 5ebe 86a1 4e3d fc66 7d3c 9e39 d8bd
00000120: 5cc6 aabe e307 363d 5177 683d e2de 093e
00000130: 9649 11be 253d 203e 522c d6bc 70c2 ab3d
00000140: 878a 1ebc 86b5 883c 89f9 bcbd e028 ffbd
00000150: 7bd3 c13d 5490 dc3d 291c ab3d 25c5 52be
00000160: a930 bc3d bfcf b93d 3e98 09bc 49ed 85be
00000170: 07c7 3dbe 52ae a93d f779 153e d122 53be
00000180: b106 b43b 507f b7be 1270 913d c275 cabd
00000190: b7b7 93bd 14f2 683d 2ee6 23be 9039 503d
000001a0: 3876 123e da0e d63d 2b61 f23c 7b81 f43d
000001b0: f633 f03d f74c d2bb 4bf6 43be 850b 153e
000001c0: d245 82be d3e2 103e 128d f63c aeb7 b6be
000001d0: 9cd0 fa3d 3beb 0dbe 5306 2dbe 925a fa3d
000001e0: 10e7 27bd 9697 40be b053 2fbe fa42 dfbd
000001f0: 9134 a3bc df0c f1bd 6bfc ddbe 64c3 643d
00000200: 4334 8ebd b92f c63d a82a c0bd 13ed 45be
00000210: 08bb b33d ed30 16be ef8b a33c 1775 a6bd
00000220: 3890 933b d936 17bc 0521 913c 401a b1bc
00000230: dcae 863d ac3b 9f3d 56ee 7cbe c438 a93e
00000240: a850 423e f71d 4e3d 7fc5 dabe 9bea 12be
00000250: cb16 093e f3ab 78be 4a77 54be c581 84bd
00000260: 2a1f 363e 61ca 1f3e d364 ea3d 7a27 803b
00000270: a9b7 e73d 8a36 5bbc 5a03 55be fb36 e2bd
00000280: fc9f ff3d 3d43 0ebd f3ac f83d b40e 8ebe
00000290: e07a 503e ff2d 2b3c 8c1a 39b9 aa4f 963e
000002a0: dd05 63be b3e8 823e bf2f 2cbe 43d6 6a3e
000002b0: 8b2a adbe 7314 c03d 034f 543e ca88 a33d
000002c0: ce02 c73d 864d 55bc 8765 273e 9617 37be
000002d0: 1ef4 34bd 0056 e03d 0952 f43c a5b8 3b3e
000002e0: 4fcf acbe 8402 aabd 9252 683d 6cd2 24be
000002f0: c8c9 723e 45a0 d63c d035 293e 9081 5f3e
00000300: 2468 aabe 9a31 1c3e 0fba 3abd 32b9 ce3d
00000310: 1536 463e 9e26 84bd af1b 0e3e c35f 083e
00000320: bf0d 283e fb9a 003d 01c8 333d 0e98 1a3d
00000330: 2184 8a3e 94a8 8cbd 8177 2e3e 00f6 65bd
00000340: 1e00 593d 3303 a33b 2c34 2d3e 624e 5f3e
00000350: 3ad9 6a3d 7d67 043d 3fff d3be 029e 9f3d
00000360: e06b f93d 49e9 d33d 63a2 10bd 232f 853e
00000370: 9ebb 233e 5d54 31be e341 073d 1c58 843d
00000380: 2dc8 40be c58c b13d 266f 27bd 7c7c 13be
00000390: 32ce e5bc 9fb5 9dbc 48e8 153e 12bd 0c3e
000003a0: c57a dabb a3dd 223d de7c 913c 890d 7c3d
000003b0: 347c 36be d1b7 863d bcba 9d3d af30 f6be
000003c0: df2f de3c 392e a5bd c9ad dfbd 1343 643e
000003d0: 702b 99bd 204a 363e 8f51 323e fbc5 acbe
000003e0: 0a74 ac3d cfdb 053e 69f3 3b3d fd1d 4a3e
000003f0: 3f1f c93d 470c 423e fc66 2b3d e99f 943d

action_model._discrete_distribution.branches.1.bias f4 [2]
0.048499882 -0.04849955
00000000: d0a7 463d 77a7 46bd

action_model._discrete_distribution.branches.1.weight f4 [2, 128]
0.16283728 0.008105354 -0.13556185 0.031503443 0.085377164 0.044029586 0.0068680886 0.030734396
-0.19740652 -0.18046807 -0.3040602 -0.092496835 -0.2660784 -0.07835053 0.023910616 0.0070609767
0.083409116 -0.03246844 0.0011675078 -0.24058037 0.025344912 -0.12464377 -0.09126161 -0.17448734
-0.025327973 -0.18646824 0.054608308 -0.07994444 0.086434916 -0.020943314 -0.08789837 -0.07296184
0.033334386 0.099320866 -0.04474941 -0.12635157 -0.008836977 0.1154722 0.19267192 0.038400985
-0.036184102 0.012605574 -0.09276192 0.017848616 -0.074608654 -0.07791985 0.0065613748 -0.31564307
-0.008842254 -0.11847081 0.033229414 -0.021916179 -0.23169596 -0.052342556 -0.045608096 0.04161378
0.044744536 -0.11953713 -0.023778737 -0.073241055 0.021756876 -0.37374154 -0.016785167 0.045529943
-0.036435585 0.028125722 0.059321776 0.0063036457 0.008911657 0.039303243 0.0048943404 -0.16388837
0.020633364 0.024786914 -0.22314389 0.06817679 0.022150122 0.05929693 -0.15540573 -0.13487145
0.055503342 -0.04838607 0.021866515 0.010748454 0.032560494 0.07258584 -0.04534724 0.14146496
0.04497936 0.011542962 0.15522256 0.09216492 0.09499468 0.11532519 -0.029118894 -0.07190119
-0.18698041 -0.10601596 -0.3120116 -0.06869348 0.0089899935 -0.06836159 0.005753347 -0.008319325
-0.04200356 -0.0017178403 -0.05254583 -0.0038493832 -0.054553088 -0.22127576 -0.1048641 0.003318687
-0.05090922 0.16970122 -0.15986104 0.014419501 -0.19307432 -0.00024146122 0.0014667612 -0.1239554
0.09158147 0.02916975 -0.020875454 0.023993254 -0.062327318 0.065782115 -0.028841708 -0.0024563428
-0.1610603 -0.025584761 0.13163604 -0.024956144 -0.0782334 -0.03134362 -0.0054652416 -0.022609044
0.19098502 0.18595168 0.3295826 0.08621872 0.275896 0.07897198 -0.019564878 -0.00596232
-0.076544315 0.021806343 0.022355344 0.25419074 -0.013421359 0.12640648 0.061665468 0.16592798
0.015320066 0.15692785 -0.043090537 0.09024819 -0.094710276 0.01749766 0.08582339 0.047230434
-0.017268077 -0.11026867 0.038043965 0.11546149 -0.011376473 -0.11653231 -0.19796216 -0.05075919
0.03535326 0.0051039066 0.08754536 -0.01622528 0.064761974 0.07816461 -0.024391837 0.3208249
0.007574307 0.14069037 -0.019313175 0.047544982 0.23432754 0.055438425 0.04336766 -0.029428856
-0.046321385 0.116157 0.023653887 0.072710834 -0.02400532 0.370428 0.015776636 -0.041617695
0.052408695 -0.02520385 -0.06906167 -0.012145337 -0.01436994 -0.025762845 -0.015096966 0.15717818
0.009595826 -0.025509702 0.21935567 -0.07127677 -0.027197182 -0.048065145 0.16963251 0.14915629
-0.050338075 0.058223233 -0.019687627 0.005543344 -0.028316122 -0.0878319 0.059603464 -0.13906407
-0.037881047 -0.030098878 -0.15033059 -0.095936194 -0.09121716 -0.108363084 0.03185471 0.07445868
0.16515216 0.10645087 0.31688312 0.06322947 0.008677015 0.08458599 -0.014147941 -0.0004928753
0.04989867 0.0007157276 0.055062477 -0.00765882 0.042520277 0.22887954 0.122253984 -0.012262569
0.053787883 -0.1657705 0.16814202 -0.030489765 0.18879628 -0.010587164 0.013431742 0.12034383
-0.088445194 -0.025950486 0.01984823 -0.03793779 0.042493235 -0.05173777 0.014640343 0.008315378
00000000: d1be 263e 52cc 043c bad0 0abe c109 013d
00000010: 39da ae3d 5e58 343d b40d e13b b3c6 fb3c
00000020: ef24 4abe 9fcc 38be c7ad 9bbe fb6e bdbd
00000030: 6e3b 88be 3e76 a0bd 32e0 c33c c45f e73b
00000040: 66d2 aa3d a0fd 04bd 1007 993a b35a 76be
00000050: 22a0 cf3c 3c45 ffbd 5ee7 babd cfac 32be
00000060: 9c7c cfbc 88f1 3ebe f6ac 5f3d e9b9 a3bd
00000070: ca04 b13d 5091 abbc 1004 b4bd 046d 95bd
00000080: a389 083d bd68 cb3d 284b 37bd 4e62 01be
00000090: f8c8 10bc b07c ec3d ca4b 453e 5a4a 1d3d
000000a0: c835 14bd 9c87 4e3c f6f9 bdbd 4337 923c
000000b0: 6ccc 98bd 7194 9fbd cd00 d73b f89b a1be
000000c0: 1adf 10bc d3a0 f2bd 911b 083d 8f89 b3bc
000000d0: b541 6dbe 2665 56bd 8ecf 3abd 3673 2a3d
000000e0: 0c46 373d e2cf f4bd a0cb c2bc 68ff 95bd
000000f0: 7a3b b23c 0d5b bfbe 0c81 89bc 9b7d 3a3d
00000100: 7b3d 15bd ea67 e63c 64fb 723d d08e ce3b
00000110: 3302 123c 70fc 203d b460 a03b 5ad2 27be
00000120: 4d07 a93c ed0d cb3c d57f 64be 46a0 8b3d
00000130: 2c74 b53c 56e1 723d ae22 1fbe be1b 0abe
00000140: 7957 633d 7930 46bd 6821 b33c 491a 303c
00000150: 275e 053d e3a7 943d 07be 39bd 31dc 103e
00000160: 473c 383d b11e 3d3c aaf2 1e3e f6c0 bc3d
00000170: 928c c23d 9d2f ec3d bf8a eebc ee40 93bd
00000180: cb77 3fbe e51e d9bd fcbf 9fbe 2baf 8cbd
00000190: c44a 133c 2901 8cbd 9386 bc3b c74d 08bc
000001a0: ed0b 2cbd 2829 e1ba 4c3a 57bd ef45 7cbb
000001b0: 0f73 5fbd 1d96 62be fdc2 d6bd 547e 593b
000001c0: 3086 50bd 28c6 2d3e 9db2 23be c53f 6c3c
000001d0: 46b5 45be c130 7db9 5740 c03a 54dc fdbd
000001e0: 118f bb3d 66f5 ee3c 0003 abbc 808d c43c
000001f0: ee4a 7fbd c6b8 863d 7245 ecbc 98fa 20bb
00000200: feec 24be 2297 d1bc 99cb 063e d470 ccbc
00000210: d538 a0bd 2b62 00bd c515 b3bb 9a36 b9bc
00000220: 9491 433e 1e6a 3e3e 0dbf a83e 7193 b03d
00000230: 3e42 8d3e 10bc a13d 8646 a0bc 915f c3bb
00000240: 44c3 9cbd 37a3 b23c 8e22 b73c 4a25 823e
00000250: 42e5 5bbc b370 013e ee94 7c3d 06e9 293e
00000260: 0401 7b3c b2b1 203e b47f 30bd 0bd4 b83d
00000270: 76f7 c1bd 4157 8f3c 2cc4 af3d b374 413d
00000280: c875 8dbc 8ad4 e1bd fdd3 1b3d 1377 ec3d
00000290: 6364 3abc 7ea8 eebd 98b6 4abe dee8 4fbd
000002a0: 94ce 103d ac3e a73b fb4a b33d e1ea 84bc
000002b0: eda1 843d c414 a03d 64d1 c7bc 2943 a43e
000002c0: e431 f83b 2311 103e aa36 9ebc 87be 423d
000002d0: 8ff3 6f3e 6713 633d 4aa2 313d c914 f1bc
000002e0: 7ebb 3dbd b9e3 ed3d ccc5 c13c 6be9 943d
000002f0: cea6 c4bc bda8 bd3e 013e 813c 5177 2abd
00000300: 80aa 563d 4e78 cebc 3470 8dbd 3cfd 46bc
00000310: e66f 6bbc 9a0c d3bc 4459 77bc 51f3 203e
00000320: d037 1d3c b9f9 d0bc c69e 603e 8ef9 91bd
00000330: a0cc debc f5df 44bd 25b4 2d3e 6dbc 183e
00000340: 4c2f 4ebd 7c7b 6e3d f247 a1bc f1a4 b53b
00000350: 36f7 e7bc 36e1 b3bd c322 743d d066 0ebe
00000360: 2829 1bbd ec91 f6bc 43f0 19be 327a c4bd
00000370: 10d0 babd 77ed ddbd 167a 023d cb7d 983d
00000380: a61d 293e ea02 da3d 813e a23e 747e 813d
00000390: 0a2a 0e3c 6b3b ad3d c4cc 67bc 4d34 01ba
000003a0: 8c62 4c3d ab9f 3b3a 3189 613d d7f6 fabb
000003b0: be29 2e3d 665f 6a3e 4c60 fa3d f1e8 48bc
000003c0: af50 5c3d bebf 29be 6c2d 2c3e acc5 f9bc
000003d0: d053 413e c975 2dbc cf10 5c3c d376 f63d
000003e0: c122 b5bd 1d96 d4bc c198 a23c a864 1bbd
000003f0: 630d 2e3d fcea 53bd 0dde 6f3c 393d 083c

discrete_action_output_shape f4 [1, 2]
4.0 2.0
00000000: 0000 8040 0000 0040

network_body._body_endoder.seq_layers.0.bias f4 [128]
0.008966077 0.05838901 0.049724955 -0.12501003 0.045024794 0.025683342 -0.0012157267 -0.02109913
-0.028915081 -0.10677418 0.011416499 -0.11528385 -0.052853383 -0.018955534 -0.067717925 -0.01934715
-0.08657099 -0.074111864 -0.054617256 -0.005208884 -0.032752298 0.0021744105 -0.042235464 -0.02089994
0.0037877334 0.0213131 -0.13618237 -0.02170434 0.00059617806 -0.0035416659 -0.022902409 -0.029098766
-0.11727678 3.1048763e-05 -0.04267606 -0.023176115 0.028036742 -0.07285042 0.009339921 0.033126704
0.0038226133 -0.045806974 0.039776158 -0.026740352 0.029310063 0.046136364 0.021680279 0.009849543
0.04941379 -0.04556106 0.042775802 -0.1300949 -0.08043121 0.020118982 -0.008175234 -0.05234757
-0.058459006 0.014446196 0.071451835 -0.043148562 -0.0012144289 -0.00077978894 0.07939317 -0.037293237
0.028244035 -0.11740537 0.08926662 0.015444978 -0.021512263 0.0038198624 -0.0027046378 -0.04875934
-0.009208952 0.036166377 0.038679652 0.04816271 0.09872443 -0.019773643 0.004570976 -0.0882716
-0.059500612 0.030728491 -0.09566734 0.0063327528 -0.013876225 -0.0725117 -0.0067318 -0.004597841
0.016799795 0.0046134684 -0.02198779 -0.056498177 -0.057525974 -0.10690516 0.04740988 -0.06695094
-0.054975063 -0.049907453 -0.025205 -0.0014562187 -0.046993256 0.034517303 0.008204861 -0.10591084
-0.07212 0.0015430284 0.03829921 0.053957738 -0.072439246 -0.051104974 -0.07559763 0.0065012616
-0.05721997 -0.053836923 -0.08233869 -0.041226313 0.00095411675 -0.09013584 0.013470109 0.06326792
0.00026691222 -0.005449573 -0.0177247 -0.0057617975 -0.074824944 -0.042863414 -0.0018766102 -0.026451474
00000000: 74e6 123c 5129 6f3d 65ac 4b3d a102 00be
00000010: eb6b 383d df65 d23c 0559 9fba 15d8 acbc
00000020: 52df ecbc 6cac dabd 440c 3b3c f019 ecbd
00000030: ca7c 58bd a348 9bbc b2af 8abd ea7d 9ebc
00000040: 224c b1bd f6c7 97bd 58b6 5fbd 49af aabb
00000050: 4627 06bd 8e80 0e3b 18ff 2cbd 5a36 abbc
00000060: 9f3b 783b cf98 ae3c 6473 0bbe 4dcd b1bc
00000070: d548 1c3a 4b1b 68bb d59d bbbc 8960 eebc
00000080: cf2e f0bd 5b3a 0238 18cd 2ebd d6db bdbc
00000090: 4fad e53c 9a32 95bd 7806 193c deaf 073d
000000a0: cf84 7a3b 18a0 3bbd 53ec 223d 950e dbbc
000000b0: a81b f03c 7cf9 3c3d d79a b13c fa5f 213c
000000c0: 1d66 4a3d 3c9e 3abd ae35 2f3d 9937 05be
000000d0: 1eb9 a4bd 90d0 a43c 6bf1 05bc 686a 56bd
000000e0: b672 6fbd bdaf 6c3c 5755 923d 8cbc 30bd
000000f0: 792d 9fba c06a 4cba e398 a23d cbc0 18bd
00000100: 0960 e73c 3a72 f0bd 6bd1 b63d ef0c 7d3c
00000110: 7c3a b0bc a856 7a3b 4b40 31bb e0b7 47bd
00000120: 25e1 16bc 3223 143d 8e6e 1e3d 4346 453d
00000130: 0930 ca3d 56fc a1bc 20c8 953b bec7 b4bd
00000140: eab6 73bd 51ba fb3c 3ded c3bd fb82 cf3b
00000150: 1b59 63bc 0481 94bd 6e96 dcbb 7ca9 96bb
00000160: b99f 893c 942c 973b bd1f b4bc a26a 67bd
00000170: 5ba0 6bbd 18f1 dabd dd30 423d 931d 89bd
00000180: 882d 61bd c26b 4cbd b77a cebc 97de beba
00000190: 007c 40bd 0462 0d3d ae6d 063c c8e7 d8bd
000001a0: a7b3 93bd 713f ca3a a2df 1c3d ca02 5d3d
000001b0: 075b 94bd 7353 51bd eed2 9abd 8908 d53b
000001c0: 7d5f 6abd 1b84 5cbd 30a1 a8bd ecdc 28bd
000001d0: b11d 7a3a 2499 b8bd bbb1 5c3c 9c92 813d
000001e0: 5af0 8b39 5592 b2bb 6433 91bc 76cd bcbb
000001f0: d23d 99bd 8c91 2fbd 97f8 f5ba c3b0 d8bc

network_body._body_endoder.seq_layers.0.weight f4 [128, 128]
-0.027068358 0.08391364 -0.10520992 -0.01617396 -0.006272569 0.24505256 -0.30600438 -0.19598569
0.058751736 -0.021168338 0.18396404 -0.13515542 0.15892692 0.05997603 0.038646612 -0.074591056
0.120992765 0.20835204 -0.19739187 -0.09132272 -0.05243461 0.17891744 0.09819856 -0.09714966
0.37161538 -0.04209637 -0.012629 0.020854538 -0.18347964 -0.04666111 -0.08871583 -0.017227411
0.31201708 0.0037495594 0.06226664 0.106213 0.046586104 -0.17110932 0.03234871 0.2304108
0.02892339 -0.068819396 -0.0681998 0.17698514 0.166303 -0.044891723 -0.0049299113 -0.040711403
0.15245007 -0.058371127 -0.06075513 0.005448414 0.04234804 0.037122175 -0.041744716 -0.027715327
-0.1200203 -0.24955897 0.09261547 0.267035 -0.079950765 0.17451952 -0.15300807 -0.15499188
-0.14191516 -0.0018971046 -0.09713386 -0.18769853 0.08812736 -0.037300576 0.069405265 -0.0067622336
-0.18495096 0.066282 -0.023380058 0.012109197 0.063958175 0.084489115 -0.18735145 -0.04241612
-0.07307522 -0.08576903 0.055273082 -0.047974974 0.064323425 0.067585714 -0.007813148 0.040640112
-0.17256126 -0.04979129 0.061491337 0.08417825 0.052022204 -0.071354814 0.24844293 -0.027989473
0.27727634 -0.0055859745 0.12246986 0.22681804 -0.14894973 -0.23739676 0.019401811 0.16581614
0.17270687 0.04503495 0.12220172 0.03344 0.2542989 -0.15162244 -0.10348675 0.070850044
0.106115416 -0.048278335 0.2591161 0.098574474 -0.09028581 -0.041203607 0.10117572 0.16086361
0.14644445 0.04813111 -0.051748246 0.03133982 -0.4266826 -0.1397315 -0.35302442 -0.14593175
-0.11202598 -0.0778235 0.12832366 0.0029246977 0.11222027 -0.31858388 0.16429609 -0.05143309
-0.15151255 0.00043473058 0.05471721 -0.031393733 0.25961888 -0.17581776 0.081342116 0.0927281
-0.1329032 0.046379488 0.026378307 -0.002849594 0.09309718 -0.10469271 0.107712425 -0.1253252
-0.06816696 -0.12895197 0.088129215 0.019114261 0.21436295 -0.023471702 0.10668078 -0.02415728
0.08568018 0.26185063 -0.11420797 0.12503971 -0.12475161 -0.21370971 0.04889015 -0.03814591
-0.009290092 -0.062388998 -0.06757696 -0.11090157 -0.058073997 -0.15628356 0.10463651 -0.011531989
-0.21294583 -0.009625823 0.035653 0.13589735 0.10165985 -0.21510477 0.024102451 -0.029195594
-0.057425838 0.3390035 -0.1976628 -0.21735528 0.057532385 -0.03389399 0.15657754 -0.16993672
0.10917712 0.022182086 -0.077150606 -0.07375531 0.23597226 0.17354757 -0.11526651 -0.34830472
0.16840836 -0.24657619 0.12455999 0.03410016 0.061691705 0.09413326 0.09374813 0.050241034
0.021981955 -0.13728657 0.05404022 0.0417845 0.045449197 0.024847267 -0.01773272 -0.05247939
-0.2516283 -0.047211815 -0.019288598 0.042787455 0.05335638 -0.06668379 0.1868703 0.18920639
-0.31613436 -0.19472486 0.1301352 0.09398625 -0.099039435 -0.037364054 -0.047159474 0.112789474
-0.2463271 -0.19891135 0.13230193 0.09625256 -0.09317322 -0.05212062 0.0501704 0.019440072
0.12559588 -0.062203802 0.24193008 0.13301526 0.08118205 0.076496206 -0.2460549 -0.08087586
-0.20297769 -0.06462644 -0.25714985 0.5684071 0.19151844 0.18793125 -0.04752186 0.32349643
00000000: 76be ddbc eada ab3d 4c78 d7bd 417f 84bc
00000010: 1f8a cdbb 0fef 7a3e 9bac 9cbe 79b0 48be
00000020: a9a5 703d 3969 adbc 1261 3c3e 2f66 0abe
00000030: bdbd 223e 6da9 753d e94b 1e3d 32c3 98bd
00000040: 0ecb f73d 3d5a 553e 1821 4abe 6807 bbbd
00000050: acc5 56bd 2236 373e 541c c93d 67f6 c6bd
00000060: 5f44 be3e 3e6d 2cbd dde9 4ebc 23d7 aa3c
00000070: 16e2 3bbe b81f 3fbd a5b0 b5bd 8020 8dbc
00000080: b4c0 9f3e 2bbb 753b 4e0b 7f3d 3486 d93d
00000090: 12d1 3e3d 4837 2fbe 1580 043d cff0 6b3e
000000a0: bff0 ec3c 2ff1 8cbd 56ac 8bbd 983b 353e
000000b0: 554b 2a3e 62e0 37bd 188b a1bb 00c1 26bd
000000c0: df1b 1c3e 9016 6fbd 5fda 78bd 9c88 b23b
000000d0: 2375 2d3d 6c0d 183d 82fc 2abd 410b e3bc
000000e0: 34cd f5bd 638c 7fbe 2ead bd3d d0b8 883e
000000f0: 3abd a3bd 3fb5 323e 26ae 1cbe 31b6 1ebe
00000100: 3552 11be 44a8 f8ba 1eee c6bd 0b34 40be
00000110: 1e7c b43d 7dc8 18bd 5924 8e3d ba95 ddbb
00000120: c963 3dbe dbbe 873d 8987 bfbc a765 463c
00000130: 81fc 823d a108 ad3d 0fd9 3fbe 87bc 2dbd
00000140: 76a8 95bd aca7 afbd 0766 623d 6881 44bd
00000150: 00bc 833d 616a 8a3d b802 00bc 3f76 263d
00000160: e6b3 30be f4f1 4bbd 57de 7b3d a565 ac3d
00000170: 3c15 553d 7922 92bd d367 7e3e 2e4a e5bc
00000180: 2af7 8d3e 8d0a b7bb 7ad1 fa3d fd42 683e
00000190: 4786 18be 2318 73be 8cf0 9e3c b5cb 293e
000001a0: 12da 303e 9176 383d e544 fa3d 62f8 083d
000001b0: 7733 823e ea42 1bbe dcf0 d3bd d419 913d
000001c0: 0a53 d93d 81bf 45bd deaa 843e 6ae1 c93d
000001d0: c4e7 b8bd 1dc5 28bd 3735 cf3d 6eb9 243e
000001e0: 89f5 153e 2025 453d f8f5 53bd 2f5e 003d
000001f0: 2476 dabe c615 0fbe 9ebf b4be 226f 15be
00000200: e16d e5bd ed61 9fbd 4767 033e 49ac 3f3b
00000210: bed3 e53d 6d1d a3be 3c3d 283e 81ab 52bd
00000220: 1b26 1bbe 8dec e339 271f 603d b796 00bd
00000230: c4ec 843e 9209 34be b296 a63d 3be8 bd3d
00000240: c717 08be 6bf8 3d3d 5217 d83c 41c0 3abb
00000250: bca9 be3d 2269 d6bd 5598 dc3d 4055 00be
00000260: 1e9b 8bbd fc0b 04be 177d b43d 8395 9c3c
00000270: f681 5b3e ba47 c0bc 747b da3d 7de5 c5bc
00000280: 1779 af3d 4911 863e dee5 e9bd 690a 003e
00000290: c67d ffbd b8d6 5abe 0a41 483d e33e 1cbd
000002a0: 7835 18bc 9b8b 7fbd ca65 8abd 5d20 e3bd
000002b0: 00df 6dbd cc08 20be ab4b d63d abf0 3cbc
000002c0: 790e 5abe a1b5 1dbc e108 123d ad28 0b3e
000002d0: 0a33 d03d 6d44 5cbe 8172 c53c 992b efbc
000002e0: 5b37 6bbd de91 ad3e 1e68 4abe 6292 5ebe
000002f0: 14a7 6b3d 6dd4 0abd dd55 203e e403 2ebe
00000300: 4198 df3d 35b7 b53c 2301 9ebd 060d 97bd
00000310: b6a2 713e 74b6 313e d910 ecbd ff54 b2be
00000320: 3e73 2c3e 787e 7cbe 4f19 ff3d 9cac 0b3d
00000330: 71b0 7c3d f0c8 c03d 05ff bf3d 8bc9 4d3d
00000340: 8013 b43c da94 0cbe 4759 5d3d 3926 2b3d
00000350: f028 3a3d 7f8c cb3c 3644 91bc a1f4 56bd
00000360: 6dd5 80be 2d61 41bd 1f03 9ebc e641 2f3d
00000370: 388c 5a3d 8391 88bd ee5a 3f3e 52bf 413e
00000380: 5ddc a1be f465 47be 2942 053e dd7b c03d
00000390: 30d5 cabd 0d0b 19bd 4b2a 41bd 2bfe e63d
000003a0: 2c3d 7cbe 6baf 4bbe 287a 073e 1020 c53d
000003b0: 9ad1 bebd 6e7c 55bd 7a7f 4d3d c940 9f3c
000003c0: 359c 003e 6ac9 7ebd 85bc 773e 2735 083e
000003d0: c642 a63d 0baa 9c3d d1f5 7bbe 3ea2 a5bd
000003e0: 62d9 4fbe de5a 84bd 25a9 83be 2183 113f
000003f0: 691d 443e 0d71 403e 48a6 42bd 53a1 a53e

network_body._body_endoder.seq_layers.2.bias f4 [128]
-0.009556111 0.0465718 0.012083442 0.013506258 -0.08353775 0.04394875 -0.17091444 -0.0008733845
-0.0508277 -0.057817344 -0.069616035 0.04286204 -0.058715936 0.041801434 0.0162085 0.007889007
-0.007369703 0.084483065 0.05617791 0.023461154 -0.010352836 -0.0049849744 -0.013728373 -0.042071074
-0.074510455 -0.04356467 -0.0010388701 -0.040121377 -0.020340163 0.035076268 0.04178797 -0.039483957
-0.030505376 -0.06195282 -0.0041772164 0.005428873 -0.021878796 -0.12578163 -0.0492315 -0.040044956
0.005022546 0.033978403 0.0012389506 0.012764654 0.0069225947 -0.037832372 -0.00092924124 -0.05246489
0.06546449 0.00064410095 -0.009295619 0.0017965855 -0.0072447374 -0.066546075 0.019833177 0.06896143
0.018698327 0.027377922 0.0064197863 -0.034099642 -0.046727095 -0.03423734 -0.0265944 0.08332239
0.02100067 0.0091156885 0.025050879 -0.017218765 0.0018850082 0.018913833 -0.029501632 -0.14524564
-0.060746707 0.029401993 -0.11623935 0.10801629 0.033370905 0.058361858 0.040051162 -0.01609324
-0.06086784 -0.044467732 -0.035808172 -0.05665894 -0.008377185 0.034451526 0.040358372 0.032208607
0.06490761 0.042220693 -0.0758573 0.046962146 0.018563025 0.04016251 0.05763288 -0.027686989
-0.013441029 0.013644481 -0.042048484 -0.027619628 0.03737631 0.0037648135 -0.05958256 0.008064905
-0.049674824 0.0014732333 -0.01606532 0.02262074 -0.0027081703 -0.110190384 -0.04619358 0.033258148
-0.029821817 -0.06369316 -0.051887356 -0.0060823266 -0.10079081 0.020677488 -0.062949784 0.056253023
0.0049526324 -0.03572989 -0.027142597 -0.028745715 0.019331466 -0.00544432 0.02552663 0.068258606
00000000: 3c91 1cbc 12c2 3e3d a1f9 453c 5a49 5d3c
00000010: d715 abbd 9b03 343d 3204 2fbe d7f3 64ba
00000020: b530 50bd e1d1 6cbd da92 8ebd 1b90 2f3d
00000030: 1f80 70bd fb37 2b3d b0c7 843c e540 013c
00000040: 8d7d f1bb 7505 ad3d cf1a 663d 9b31 c03c
00000050: f19e 29bc ff58 a3bb f8ec 60bc b852 2cbd
00000060: f098 98bd de70 32bd b22a 88ba 5056 24bd
00000070: 6aa0 a6bc 22ac 0f3d dd29 2b3d eeb9 21bd
00000080: 69e6 f9bc 3dc2 7dbd 08e1 88bb b0e4 b13b
00000090: 293b b3bc e6cc 00be f8a6 49bd 2e06 24bd
000000a0: 2b94 a43b f02c 0b3d 4964 a23a d722 513c
000000b0: efd6 e23b 1ef6 1abd 5398 73ba 6de5 56bd
000000c0: 3f12 863d e2d8 283a a74c 18bc 687b eb3a
000000d0: 4365 edbb 4f49 88bd 3079 a23c a63b 8d3d
000000e0: 3c2d 993c aa47 e03c 125d d23b 11ac 0bbd
000000f0: e964 3fbd 743c 0cbd 80dc d9bc eea4 aa3d
00000100: 9909 ac3c f859 153c 8037 cd3c 5e0e 8dbc
00000110: 6112 f73a 2ff1 9a3c 68ad f1bc 46bb 14be
00000120: 8ad1 78bd 73dc f03c e50e eebd a537 dd3d
00000130: eeaf 083d d80c 6f3d b00c 243d f8d5 83bc
00000140: 8e50 79bd cc23 36bd 97ab 12bd 3413 68bd
00000150: 7640 09bc 0b1d 0d3d d24e 253d 2ced 033d
00000160: 48ee 843d 9bef 2c3d 125b 9bbd 615b 403d
00000170: 7c11 983c 7281 243d 7410 6c3d d3cf e2bc
00000180: c337 5cbc 1a8d 5f3c 083b 2cbd 8f42 e2bc
00000190: e717 193d 17bb 763b d80c 74bd aa22 043c
000001a0: d477 4bbd 8219 c13a 6b9b 83bc 214f b93c
000001b0: 8f7b 31bb 7fab e1bd 7b35 3dbd b239 083d
000001c0: e24c f4bc 8f71 82bd d687 54bd 414e c7bb
000001d0: 6a6b cebd d663 a93c d1eb 80bd 9269 663d
000001e0: b149 a23b 8159 12bd 275a debc 227c ebbc
000001f0: 065d 9e3c 4466 b2bb 391d d13c 2bcb 8b3d

network_body._body_endoder.seq_layers.2.weight f4 [128, 128]
0.09450823 0.13494927 0.025585644 -0.059244946 -0.24661364 -0.100713335 -0.049710643 0.16536224
-0.14631419 0.13392472 -0.05620424 -0.1652509 0.19176893 0.19353715 0.1980961 0.102465786
0.113551326 -0.36580136 -0.094346754 -0.13718168 -0.17134848 -0.258237 0.12519869 0.28273734
-0.07752227 -0.26721656 0.18656224 0.14705567 -0.30139112 -0.3252101 -0.022575615 -0.112721376
0.0007687146 0.16963065 0.22969627 -0.3503606 -0.24022377 -0.1096105 -0.17325367 0.21202157
-0.053416826 -0.027998965 0.04430323 -0.21291007 -0.24394593 0.12555979 -0.008798372 -0.23324618
0.14954989 -0.06219459 -0.31776723 -0.0045241257 -0.09254783 0.035414312 -0.100409895 -0.060423456
-0.082690865 0.2714596 -0.0388692 -0.037191764 -0.1636178 -0.22528248 -0.15178546 -0.094715595
-0.11159748 -0.19601306 0.05131262 -0.011238789 0.2001616 0.075378396 -0.27661988 -0.08600375
-0.278459 -0.014581619 0.051815823 -0.1236113 -0.0063707763 -0.04398362 -0.20408888 0.06597541
-0.09815162 -0.27953884 -0.026945826 -0.07840627 0.022395397 0.21695212 0.15809627 0.14874816
-0.5963944 -0.0065602656 -0.30507112 -0.04548262 0.23740058 -0.08177971 -0.039721236 0.18174206
-0.22051431 -0.08482978 0.11750996 -0.027949046 -0.10551681 -0.13774401 0.12809113 -0.022908002
-0.18167216 0.056969576 -0.031322457 -0.1175809 -0.12540771 -0.1401132 0.1050195 -0.49008667
-0.21275371 0.11815424 -0.07893732 -0.11578565 -0.055380166 0.0012150857 -0.03514712 -0.19507928
-0.027294291 0.043614674 0.13082843 -0.0040215366 0.18278003 -0.052132618 -0.04077485 -0.024541385
0.027962688 0.047416322 -0.07252859 0.12326341 0.21209522 0.22002755 -0.25328198 0.18824466
0.19060864 -0.009016971 -0.017659124 -0.19849731 0.12717828 -0.067452475 -0.0060281386 -0.019745374
-0.03289746 0.28710994 -0.0518758 0.121173926 -0.17745735 -0.13919894 0.15526551 -0.05699274
0.13392632 0.049935132 -0.23173554 0.039685298 0.12692212 0.20113197 0.10704796 0.05992217
0.023604421 -0.026160227 -0.18063352 -0.027537104 0.23674235 -0.12243305 0.31407052 -0.04912102
0.0511485 -0.06632079 0.17604707 -0.10514441 0.10392219 -0.020319924 0.08728295 0.0547421
0.1101656 -0.119903326 0.055126406 -0.005237079 0.08801797 0.10450319 -0.01984613 0.10277473
0.18363221 0.017455773 -0.0039548464 0.17141886 0.18830943 -0.024093047 0.029830588 0.05040619
-0.20747215 0.2717555 -0.089790896 0.04299573 -0.03812837 0.065419234 -0.048651833 0.0066147656
-0.17260921 0.010804583 -0.09117792 0.18830642 0.22626024 -0.07633739 0.059007443 0.16445315
-0.048403647 -0.006204571 -0.011956729 0.2675524 -0.15280932 -0.048560888 -0.32349348 0.32320663
-0.1067796 0.19957973 0.095506325 -0.07700121 0.16708682 0.03944008 -0.16916527 -0.21659815
0.065423764 0.07057493 -0.02072882 0.012124007 0.107929766 -0.0070983185 0.002735875 0.0022174504
0.114743315 0.06535672 0.018423514 0.13124424 0.036573626 -0.083203696 0.027528407 0.0025628614
0.37477934 -0.2363291 0.13755575 0.03231823 0.23503263 -0.14711183 -0.09312808 -0.0009158003
-0.13901953 0.080752276 -0.0004333406 -0.25086746 0.050399028 -0.02164657 -0.11445081 0.01143628
00000000: 888d c13d 2430 0a3e fc98 d13c d4aa 72bd
00000010: 4988 7cbe cb42 cebd 639d 4bbd b854 293e
00000020: 63d3 15be 9023 093e 6b36 66bd 8837 29be
00000030: 135f 443e 9a2e 463e b4d9 4a3e 95d9 d13d
00000040: 998d e83d 514a bbbe df38 c1bd 5b79 0cbe
00000050: fa75 2fbe a437 84be 1634 003e f3c2 903e
00000060: ffc3 9ebd 9cd0 88be 2c0a 3f3e c395 163e
00000070: f04f 9abe f081 a6be 7ff0 b8bc 77da e6bd
00000080: 9083 493a a8b3 2d3e 8035 6b3e 7762 b3be
00000090: 38fd 75be 787b e0bd 6969 31be 2f1c 593e
000000a0: 9acb 5abd 165e e5bc 4e77 353d 1905 5abe
000000b0: f6cc 79be bf92 003e 0c27 10bc 16d8 6ebe
000000c0: 9b23 193e c1bf 7ebd 63b2 a2be 1e3f 94bb
000000d0: b789 bdbd 990e 113d b4a3 cdbd 967e 77bd
000000e0: d459 a9bd c1fc 8a3e 4f35 1fbd 6456 18bd
000000f0: 6d8b 27be 73b0 66be a66d 1bbe 40fa c1bd
00000100: 388d e4bd a6b7 48be 2f2d 523d e622 38bc
00000110: 2af7 4c3e fd5f 9a3d 1fa1 8dbe bc22 b0bd
00000120: 2e92 8ebe bee7 6ebc d43c 543d ec27 fdbd
00000130: f2c1 d0bb 2b28 34bd adfc 50be 1e1e 873d
00000140: b703 c9bd b71f 8fbe 7ebd dcbc 7793 a0bd
00000150: 8d76 b73c b228 5e3e fde3 213e 7051 183e
00000160: 4ead 18bf 7ff7 d6bb 4832 9cbe fc4b 3abd
00000170: 2319 733e 1f7c a7bd bcb2 22bd 971a 3a3e
00000180: 81ce 61be 3cbb adbd 10a9 f03d 66f5 e4bc
00000190: 3319 d8bd c40c 0dbe 522a 033e 90a9 bbbc
000001a0: 4408 3abe ee58 693d fa4b 00bd 41ce f0bd
000001b0: e16a 00be d679 0fbe 7714 d73d a4ec fabe
000001c0: 1cdc 59be dafa f13d e4a9 a1bd 0721 edbd
000001d0: 50d6 62bd 8343 9f3a 6df6 0fbd ddc2 47be
000001e0: 4798 dfbc 4da5 323d e3f7 053e 18c7 83bb
000001f0: b02a 3b3e 0389 55bd 8703 27bd 040b c9bc
00000200: 0212 e53c 9e37 423d df89 94bd 8771 fc3d
00000210: 7d2f 593e e74e 613e 2dae 81be 35c3 403e
00000220: e92e 433e ebbb 13bc dea9 90bc e142 4bbe
00000230: 063b 023e 8624 8abd b187 c5bb 0dc1 a1bc
00000240: 7dbf 06bd 1300 933e b87b 54bd 092a f83d
00000250: 61b7 35be 2b8a 0ebe ecfd 1e3e 3871 69bd
00000260: fb23 093e c888 4c3d 154c 6dbe 0d8d 223d
00000270: dff7 013e 8af5 4d3e f63b db3d f370 753d
00000280: 0f5e c13c f94d d6bc fef7 38be 7e95 e1bc
00000290: 966c 723e 2ebe fabd dacd a03e 1f33 49bd
000002a0: 1781 513d 32d3 87bd af45 343e f455 d7bd
000002b0: 28d5 d43d f875 a6bc 67c1 b23d 4139 603d
000002c0: 819e e13d e08f f5bd 3acc 613d ce9b abbb
000002d0: c442 b43d c505 d63d 5a94 a2bc 8f7b d23d
000002e0: 150a 3c3e 69ff 8e3c a897 81bb 6d88 2f3e
000002f0: 30d4 403e c85e c5bc 475f f43c b976 4e3d
00000300: 9473 54be 8923 8b3e 4ae4 b7bd 4a1c 303d
00000310: 7e2c 1cbd 85fa 853d 2547 47bd adc0 d83b
00000320: 78c0 30be b505 313c 7dbb babd 66d3 403e
00000330: c4b0 673e c756 9cbd cab1 713d 6866 283e
00000340: e742 46bd b74f cbbb 28e6 43bc a1fc 883e
00000350: 0c7a 1cbe c8e7 46bd f0a0 a5be 577b a53e
00000360: 43af dabd a15e 4c3e d298 c33d cfb2 9dbd
00000370: cf18 2b3e ec8b 213d a939 2dbe e8cb 5dbe
00000380: e5fc 853d 9789 903d 7ccf a9bc c5a3 463c
00000390: 480a dd3d 0399 e8bb 5e4c 333b a552 113b
000003a0: 8bfe ea3d bed9 853d e9ec 963c e464 063e
000003b0: 3ace 153d b366 aabd 4183 e13c aef5 273b
000003c0: 14e3 bf3e 4100 72be 6adb 0c3e 1f60 043d
000003d0: 65ac 703e 7ca4 16be efb9 bebd 5112 70ba
000003e0: 235b 0ebe 7361 a53d fe31 e3b9 b371 80be
000003f0: 366f 4e3d 2654 b1bc 3065 eabd 3c5f 3b3c

network_body.observation_encoder.processors.0.normalizer.running_mean f4 [60]
0.012038504 0.3553398 0.6326404 0.83122724 0.013553453 0.24871644 0.737732 0.84371233
0.00915912 0.18684329 0.80397695 0.89589006 0.01081646 0.19377065 0.7954134 0.8912264
0.0066102794 0.27992553 0.71343577 0.86304533 0.008509217 0.25934714 0.73215026 0.8743851
0.0051371376 0.33203545 0.6628101 0.8270881 0.007003326 0.18826973 0.80471927 0.88669384
0.004336539 0.2504143 0.745228 0.83833694 0.005480252 0.1499709 0.8445639 0.8866769
0.0037035553 0.15840669 0.8378823 0.8835207 0.0047164676 0.15687808 0.8384027 0.886743
0.0030225404 0.08105023 0.9159215 0.9366485 0.0038359961 0.10895264 0.88726133 0.9176648
0.0022488865 0.14371465 0.85402334 0.9073302
00000000: 253d 453c 19ef b53e b9f4 213f 4fcb 543f
00000010: 4d0f 5e3c 86af 7e3e 01dc 3c3f 88fd 573f
00000020: 2210 163c d953 3f3e 6fd1 4d3f 0d59 653f
00000030: 8537 313c d06b 463e 36a0 4b3f 6a27 643f
00000040: 0b9b d83b 6652 8f3e baa3 363f 8af0 5c3f
00000050: 3e6a 0b3c 26c9 843e 336e 3b3f b4d7 5f3f
00000060: 6f55 a83b 8d00 aa3e ecad 293f 0cbc 533f
00000070: 287c e53b c8c9 403e 1502 4e3f 5efe 623f
00000080: 8719 8e3b 4e36 803e 43c7 3e3f 409d 563f
00000090: b093 b33b f991 193e 5735 583f 42fd 623f
000000a0: 59b7 723b 5d35 223e 747f 563f 6a2e 623f
000000b0: 998c 9a3b a6a4 203e 8fa1 563f 9701 633f
000000c0: d015 463b aafd a53d d579 6a3f 32c8 6f3f
000000d0: 5665 7b3b 9022 df3d 8f23 633f 15ec 6a3f
000000e0: 0e62 133b ef29 133e 46a1 5a3f cb46 683f

network_body.observation_encoder.processors.1.normalizer.running_mean f4 [60]
0.010745166 0.13667826 0.8525096 0.9180837 0.007905183 0.07497268 0.91716444 0.95259047
0.0058472627 0.15681237 0.83729386 0.90528035 0.0063315574 0.11169725 0.8821077 0.95086664
0.004313724 0.12564597 0.87007254 0.94011754 0.005965721 0.13362771 0.86041635 0.930227
0.0035823267 0.062738225 0.9336817 0.9526847 0.0050370684 0.059116915 0.9358687 0.95851946
0.0029122918 0.115005784 0.88206995 0.93708056 0.0042787693 0.042227782 0.9534489 0.96320516
0.0025239128 0.060119715 0.9373391 0.95342594 0.0037511084 0.037592478 0.9586404 0.9678262
0.0021116643 0.053859033 0.9438993 0.95759624 0.0029790038 0.041091908 0.9559575 0.9681084
0.0015262885 0.07486465 0.9235918 0.94747657
00000000: 7e0c 303c 63f5 0b3e 123e 5a3f 8907 6b3f
00000010: be84 013c 478b 993d 4acb 6a3f f8dc 733f
00000020: 659a bf3b 6c93 203e e458 563f 74c0 673f
00000030: f478 cf3b 87c1 e43d cfd1 613f ff6b 733f
00000040: 245a 8d3b 56a9 003e 13bd 5e3f 8bab 703f
00000050: 187c c33b b4d5 083e 3f44 5c3f 5b23 6e3f
00000060: 78c5 6a3b e67c 803d c405 6f3f 25e3 733f
00000070: fe0d a53b 9424 723d 1795 6f3f 8861 753f
00000080: 26dc 3e3b 2788 eb3d 56cf 613f 83e4 6f3f
00000090: eb34 8c3b 0af7 2c3d 3a15 743f 9d94 763f
000000a0: 3b68 253b 1740 763d 75f5 6f3f b913 743f
000000b0: 28d5 753b 92fa 193d 7569 753f 75c3 773f
000000c0: d963 0a3b 4a9b 5c3d 62a3 713f 0725 753f
000000d0: 643b 433b fd4f 283d a1b9 743f f4d5 773f
000000e0: be0d c83a a352 993d 8370 6c3f d38d 723f

network_body.observation_encoder.processors.2.normalizer.running_mean f4 [8]
0.10514121 1.2976501 -0.0091866655 0.0026185277 0.8371329 0.007821965 -0.055759795 0.94483733
00000000: 4654 d73d 6619 a63f ab83 16bc 9b9b 2b3b
00000010: 574e 563f b327 003c 6264 64bd dce0 713f
