06 - Basic ML-Agents example/My project/Assets/Runs/Ash-258028.onnx (onnx, 81938 bytes, 8 tensors)

49 f4 [20]
0.119738035 0.056963805 0.25741374 0.24133499 0.10816501 0.05465195 0.35210946 0.34408787
0.11452717 0.050127544 0.37960362 0.37296566 0.10797241 0.05376354 0.24990253 0.2372113
0.11806008 0.06274909 0.36168638 0.35426882
00000000: 3739 f53d e152 693d bccb 833e 8520 773e
00000010: 9e85 dd3d b9da 5f3d b147 b43e 492c b03e
00000020: 398d ea3d 8a52 4d3d 685b c23e 5bf5 be3e
00000030: a420 dd3d 2837 5c3d 73e6 7f3e 85e7 723e
00000040: 7cc9 f13d 9882 803d f52e b93e b962 b53e

action_model._discrete_distribution.branches.0.bias f4 [5]
-0.010030475 0.05002995 -0.047663737 -0.017592484 0.016257564
00000000: dd56 24bc 34ec 4c3d 0d3b 43bd 1d1e 90bc
00000010: 952e 853c

action_model._discrete_distribution.branches.0.weight f4 [5, 128]
-0.011690073 -0.016124697 -0.007921113 0.022014268 0.009091643 -0.025388485 -0.0044468185 0.021743784
-0.041304953 0.03092106 0.001143557 -0.032229073 0.0020592685 0.0153835295 0.0147728445 -0.021622054
0.0076932604 0.018368252 -0.004253294 0.0026330387 0.024622988 0.006426747 -0.0047985893 0.005374047
0.020667188 0.014659534 -0.027149413 -0.012183676 -0.01774935 0.016229553 0.0021341862 -0.040279564
-0.012492247 0.024935992 -0.015683208 -0.007532042 -0.026736114 -0.00086354616 0.01168212 0.025430128
-0.026991228 0.012617785 -0.008235725 -0.0055420278 -0.016789671 0.013308807 0.0018020404 -0.006684024
0.015058509 -0.02584848 0.012172476 0.017395742 0.003494381 -0.04911853 -0.015383742 0.0144908205
0.016414262 0.021208636 -0.005168231 0.019805137 -0.0021576579 -0.009058992 0.001782241 0.003968211
-0.026505847 -0.010965139 -0.05552883 0.014143362 -0.0025558893 0.0059729684 -0.003075972 0.0048402464
0.00054805086 0.004753143 -0.012037933 -0.038159326 0.002093771 -0.003695204 0.0065817903 -0.0023058814
0.001810218 0.015825065 -0.014847671 -0.008442711 -0.035538 -0.0024467858 0.023771899 -0.006463591
0.010298172 -0.0049277702 -0.0015364999 0.01623768 -0.016752694 0.016274426 -0.02022697 0.014489106
0.0068480102 0.0032336623 0.010842828 0.00732114 -0.01594238 -0.030103737 0.0024828038 0.00812832
-0.0041616843 -0.017546263 -0.014009306 0.006623276 -0.017296448 0.0034572438 0.003603361 -0.026896402
0.0020057904 -0.015870223 0.026008615 0.00672352 0.015745858 -0.0023336813 0.031218478 -0.023709372
-0.0383291 0.022551378 0.018538803 0.00057883485 -0.005679179 0.002829573 0.0021480771 0.018518109
-0.0037743298 -0.04751584 0.017257093 0.008993405 -0.040971667 -0.011425683 0.0020741534 0.013585404
-0.015706683 -0.010964451 -0.0036579329 0.015764916 0.024709929 -0.002162719 0.008934101 0.019018928
0.015006153 -0.057478763 0.027727837 0.0018010351 0.044426117 -0.009581943 -0.007704446 -0.029622212
0.015325785 0.051971648 0.02886019 0.0035543866 0.024191828 0.025933165 0.011538688 0.019182375
0.031190485 0.053503014 -0.039793897 0.016421694 0.019475926 -0.0038067785 0.005575014 -0.006048775
-0.012665839 -0.042785596 0.01582129 0.020315694 -0.0040849713 -0.0063604857 0.019121733 -0.010400895
0.04442897 -0.00197653 -0.006208425 0.0021374389 -0.0035809355 0.0075121853 0.00299045 0.0076906583
0.007233988 0.012503684 0.0076530566 0.007819101 0.010238638 -0.017948685 0.019021297 -0.044480205
0.0071379365 0.008361859 -0.013648286 0.009091164 -0.011513428 0.0146300495 0.007265022 0.0011299854
0.016190197 0.0050652777 0.009087947 0.010577052 0.045027312 -0.023686543 -0.0062248306 0.011765238
-0.022566358 0.019427573 0.0068625533 0.012334323 -0.005541783 -0.013239436 0.0045225634 0.03567078
-0.028902637 -0.040945794 0.052144114 -0.020115983 -0.0053997636 0.014652038 0.010849855 -0.022745615
0.0154245235 -0.035117954 0.0098700505 -0.002255655 0.008043386 0.0020121967 0.0061213668 -0.03686956
-0.04640276 -0.00034170804 0.010391793 0.009767067 -0.004179417 0.045284234 0.009821681 0.011223928
0.003744719 0.009322169 0.008238906 -0.007488091 -0.050163187 0.001787291 -0.017401826 0.007128343
0.0274097 -0.0069812164 -0.032030318 0.0070780106 0.005109221 0.0016555085 0.008295644 -0.018595705
00000000: b887 3fbc f117 84bc 8ec7 01bc 4457 b43c
00000010: 1df5 143c 83fb cfbc 9eb6 91bb 0520 b23c
00000020: 622f 29bd 2a4e fd3c 68e3 953a a202 04bd
00000030: cbf4 063b 330b 7c3c cd09 723c bc20 b1bc
00000040: bf17 fc3b 0479 963c 375f 8bbb 0f8f 2c3b
00000050: 26b6 c93c 7697 d23b 7c3d 9dbb c618 b03b
00000060: 3c4e a93c 8b2e 703c 7268 debc 0a9e 47bc
00000070: 1667 91bc d7f3 843c b4dd 0b3b 2ffc 24bd
00000080: 48ac 4cbc 9146 cc3c 127a 80bc 59cf f6bb
00000090: b205 dbbc 9a5f 62ba 5d66 3f3c d852 d03c
000000a0: b51c ddbc d3ba 4e3c 22ef 06bc e699 b5bb
000000b0: 7e8a 89bc 2f0d 5a3c 7132 ec3a a805 dbbb
000000c0: f7b7 763c 31c0 d3bc 116f 473c 8481 8e3c
000000d0: fc01 653b 8330 49bd 170c 7cbc e86a 6d3c
000000e0: 3477 863c bcbd ad3c 445a a9bb 623e a23c
000000f0: 7e67 0dbb 2b6c 14bc 169a e93a c407 823b
00000100: ca22 d9bc 20a7 33bc 3372 63bd 8fb9 673c
00000110: b580 27bb e4b8 c33b 3f96 49bb ee9a 9e3b
00000120: 12ab 0f3a 41c0 9b3b c03a 45bc f44c 1cbd
00000130: a637 093b 3c2b 72bb 0fac d73b 451e 17bb
00000140: d644 ed3a 91a3 813c a543 73bc 4c53 0abc
00000150: 4b90 11bd 415a 20bb 49bd c23c 88cc d3bb
00000160: aab9 283c 2279 a1bb 6264 c9ba e204 853c
00000170: f23c 89bc f251 853c 08b3 a5bc b763 6d3c
00000180: 4665 e03b daeb 533b 1ea6 313c 2ce6 ef3b
00000190: 9899 82bc 1d9c f6bc 89b6 223b a52c 053c
000001a0: bd5e 88bb 2ebd 8fbc 4a87 65bc 1108 d93b
000001b0: 48b1 8dbc ed92 623b 5e26 6c3b d855 dcbc
000001c0: 9473 033b 4502 82bc 0510 d53c f950 dc3b
000001d0: 75fd 803c adf0 18bb e5bd ff3c 283a c2bc
000001e0: f9fe 1cbd abbd b83c b0de 973c f3bc 173a
000001f0: 6818 babb 5b70 393b c1c6 0c3b 4ab3 973c
00000200: bf5a 77bb f89f 42bd bf5e 8d3c 1359 133c
00000210: e8d1 27bd ca32 3bbc 85ee 073b 5095 5e3c
00000220: 4dab 80bc 3ea4 33bc eeb9 6fbb 6d25 813c
00000230: 7a6c ca3c 67bc 0dbb 5660 123c 95cd 9b3c
00000240: 5edc 753c da6e 6bbd 7d25 e33c b610 ec3a
00000250: 29f8 353d 95fd 1cbc 9475 fcbb 48aa f2bc
00000260: 0019 7b3c 39e0 543d 356c ec3c b6f0 683b
00000270: f12d c63c ca71 d43c c40c 3d3c 5b24 9d3c
00000280: 3083 ff3c fa25 5b3d edfe 22bd ca86 863c
00000290: fa8b 9f3c 257b 79bb 9bae b63b cd34 c6bb
000002a0: 6184 4fbc f33f 2fbd a69b 813c 196d a63c
000002b0: 39db 85bb 9f6b d0bb 2ea5 9c3c 8468 2abc
000002c0: 27fb 353d ac88 01bb 0b70 cbbb 4614 0c3b
000002d0: 21ae 6abb c728 f63b 6dfb 433b eb01 fc3b
000002e0: 170b ed3b 40dc 4c3c 7ec6 fa3b b01b 003c
000002f0: f6bf 273c 1f09 93bc 8dd2 9b3c e030 36bd
00000300: 5ae5 e93b 2e00 093c 109d 5fbc 1bf3 143c
00000310: d1a2 3cbc e0b2 6f3c 6c0f ee3b 051c 943a
00000320: 4ea1 843c a1fa a53b 9de5 143c 5f4b 2d3c
00000330: 8f6e 383d 480a c2bc aaf9 cbbb fcc2 403c
00000340: 15dd b8bc 9326 9f3c 45df e03b e615 4a3c
00000350: d897 b5bb 38ea 58bc 0332 943b 861b 123d
00000360: 39c5 ecbc c7b6 27bd 1195 553d 46ca a4bc
00000370: 80f0 b0bb 1a0f 703c 97c3 313c 0355 babc
00000380: 24b7 7c3c d8d7 0fbd feb5 213c 9cd3 13bb
00000390: 68c8 033c 0fdf 033b bf95 c83b 8904 17bd
000003a0: d210 3ebd 4727 b3b9 5742 2a3c 0c06 203c
000003b0: 7ef3 88bb f67b 393d 1eeb 203c 91e4 373c
000003c0: f669 753b 03bc 183c 7afc 063c a95e f5bb
000003d0: ea77 4dbd 8943 ea3a 468e 8ebc e094 e93b
000003e0: 4f8a e03c b0c2 e4bb 3932 03bd a8ee e73b
000003f0: 416b a73b a6fd d83a 74ea 073c 0556 98bc

network_body._body_endoder.seq_layers.0.bias f4 [128]
0.024612881 0.016069664 -0.03129169 -0.010629548 -0.051470466 0.020434806 0.004277643 -0.009620775
-0.003422432 -0.00018164924 -0.04682041 0.020985954 -0.016111894 -0.05884968 0.030467408 0.045812685
-0.014719266 0.016122846 -0.009626595 0.0070650005 -0.026246782 -0.0468236 -0.06157385 0.020807795
0.014805847 -0.02421897 -0.08032448 -0.03006386 0.0039786925 -0.053770885 -0.0136688715 0.011376331
0.008229217 0.009431394 0.03208831 -0.021356173 -0.078890935 0.03987792 0.016759275 0.03123133
-0.017410468 -0.0043538227 0.06895059 0.05330607 -0.068595566 -0.030549359 -0.01153975 0.018942906
0.051593263 0.018175486 -0.032558683 -0.03075473 0.0031257442 0.028402397 -0.027678076 -0.041189924
-0.007464535 0.012368207 -0.03702747 0.028368777 -0.061959565 0.013917164 0.044939913 -0.0695487
0.021623122 0.009619863 -0.0026426455 0.049755212 -0.0406848 -0.0071925004 -0.02274286 -0.019106375
0.008076868 0.018391354 0.029336162 0.018620312 0.0010612294 -0.05707844 0.010661179 -0.03890744
0.01586676 -0.016344236 -0.039194852 0.030335642 -0.012136697 -0.0039614863 -0.024549713 0.04121058
0.06965332 -0.016785974 -0.039947476 0.014840388 -0.014468932 -0.050855506 0.022314716 0.013781584
-0.0687242 -0.029591817 -0.010773168 -0.005862301 -0.033923708 0.019413015 0.001805183 0.047475792
0.0011293943 0.027229114 0.01839777 -0.03989582 0.01921925 0.036517836 -0.0015262259 0.008890122
0.019697258 0.019751607 0.020239329 0.003397458 0.019516405 0.037341002 -0.0038152186 1.9707064e-05
0.071575806 0.045221493 0.044345733 -0.05612533 0.018459978 0.04857278 -0.073979914 0.0025033848
00000000: f4a0 c93c 87a4 833c b72b 00bd 8e27 2ebc
00000010: b2d2 52bd e566 a73c 782b 8c3b 74a0 1dbc
00000020: e24a 60bb 1979 3eb9 c2c6 3fbd bcea ab3c
00000030: 17fd 83bc 5d0c 71bd c996 f93c 15a6 3b3d
00000040: 1429 71bc 0f14 843c deb8 1dbc 8581 e73b
00000050: 7e03 d7bc 1aca 3fbd dd34 7cbd 1c75 aa3c
00000060: 3994 723c dd66 c6bc 2981 a4bd 7c48 f6bc
00000070: b15f 823b dc3e 5cbd 67f3 5fbc ca63 3a3c
00000080: d6d3 063c 2286 1a3c 086f 033d 24f3 aebc
00000090: 9291 a1bd 0857 233d bf4a 893c d9d8 ff3c
000000a0: 66a0 8ebc 83aa 8ebb f835 8d3d 7757 5a3d
000000b0: d57b 8cbd a642 fabc 3811 3dbc 272e 9b3c
000000c0: 7553 533d c2e4 943c 415c 05bd 58f1 fbbc
000000d0: 49d9 4c3b 25ac e83c 22bd e2bc c4b6 28bd
000000e0: 0f99 f4bb 05a4 4a3c 1eaa 17bd a365 e83c
000000f0: 50c9 7dbd d104 643c ea12 383d 8c6f 8ebd
00000100: f922 b13c a19c 1d3c 3c30 2dbb 1fcc 4b3d
00000110: 1ba5 26bd 11af ebbb 3c4f babc f984 9cbc
00000120: d754 043c 77a9 963c 6452 f03c a089 983c
00000130: f318 8b3a 15cb 69bd 3aac 2e3c 685d 1fbd
00000140: 02fb 813c 59e4 85bc c88a 20bd 7482 f83c
00000150: ffd8 46bc 5bcf 81bb 7b1c c9bc 6dcc 283d
00000160: 66a6 8e3d bd82 89bc f79f 23bd 1925 733c
00000170: 190f 6dbc dd4d 50bd 5acd b63c 27cc 613c
00000180: 46bf 8cbd 8a6a f2bc f181 30bc 8c18 c0bb
00000190: 96f3 0abd 0b08 9f3c e49b ec3a fa75 423d
000001a0: 2f08 943a 970f df3c ecb6 963c cd69 23bd
000001b0: b071 9d3c ba93 153d a50b c8ba e0a7 113c
000001c0: 255c a13c 1fce a13c f3cc a53c e3a7 5e3b
000001d0: dee0 9f3c e1f2 183d bf08 7abb 9950 a537
000001e0: 5696 923d 2c3a 393d dfa3 353d ade3 65bd
000001f0: 6139 973c 40f4 463d c882 97bd d40f 243b

network_body._body_endoder.seq_layers.0.weight f4 [128, 20]
-0.08227262 0.36146444 -0.20167586 -0.031017283 0.061184198 -0.19926248 0.15300953 -0.06950937
-0.27850354 -0.0890386 0.18887216 -0.513749 0.15746078 -0.19587108 0.052066702 0.45979598
0.35754883 0.2722812 0.14685017 -0.07736674 -0.103347644 0.24345303 -0.2765164 0.028729547
0.04645473 0.052147616 0.028174821 -0.32684594 0.4295597 0.11711467 -0.04132233 -0.35785064
0.39161924 -0.026739644 0.12185025 0.24415201 0.4734446 -0.42159376 -0.37261352 0.18705735
0.16399273 -0.14724657 -0.29216352 -0.07777932 -0.07353497 0.3046047 -0.039045103 -0.10645875
0.19120407 -0.6010362 0.2196153 -0.20652318 -0.13138436 -0.192232 0.19015479 -0.2206541
-0.10418421 -0.1478283 0.23113169 -0.05097761 -0.07240532 0.23648468 -0.33783683 -0.063809745
-0.12037528 -0.32843795 -0.2836818 -0.09387858 -0.02346494 -0.108362325 -0.021073693 0.22536401
0.4269786 0.27281716 -0.009429647 0.23708217 -0.2943076 0.2901252 0.2078434 -0.12917937
0.18241893 0.39599413 0.09600839 -0.046770643 0.085944705 0.027679443 -0.039256882 -0.2397112
0.19738112 -0.24478918 0.058750853 -0.052915875 -0.22082213 -0.20092304 -0.111678794 -0.01983235
-0.3141375 0.43414664 -0.111550346 0.06860003 0.7162272 -0.00806413 -0.03207306 0.10091302
0.13550854 -0.18461548 0.3392833 0.3037485 -0.2800805 0.09043 -0.032280505 -0.39512128
0.16102873 -0.18813448 -0.7995703 0.6931916 -0.006372818 0.32917118 0.02520068 0.23203559
0.22403753 -0.0914621 -0.21968123 0.1387025 -0.12479707 -0.1046765 -0.37809625 -0.05172429
0.24879445 0.14924544 0.19898456 0.1892433 0.10266136 -0.22246468 -0.015234004 0.06581838
0.1869375 -0.19304 0.25238007 -0.07812764 0.20438942 -0.09091248 -0.2476118 -0.0427408
0.22150804 0.41589668 0.16898759 0.054550402 -0.16130127 0.124789804 -0.012236843 -0.07452871
-0.049715254 -0.08018162 0.11138715 0.25684974 0.45278832 0.25038952 0.4473492 -0.033012964
-0.14882156 -0.3981392 -0.18080358 -0.08503393 0.30866593 -0.059418365 0.18847457 -0.2534722
-0.3051625 -0.16236871 -0.28992355 0.31091148 -0.18020207 -0.14013107 -0.18416336 -0.044989813
0.27941284 -0.08549646 0.33152023 0.09734137 -0.0022381567 -0.1738095 0.17854282 -0.030053426
-0.091602705 0.28642216 0.25176945 0.21504042 -0.34335014 0.26004973 0.1087105 -0.01745298
-0.12894706 -0.5161404 -0.3017051 0.039481547 -0.24250826 0.13741061 0.10605742 0.119547114
0.030229382 0.38342133 -0.035171825 0.31313768 0.21626323 0.06387584 -0.18472485 -0.20056048
0.23991384 -0.49462587 0.16588008 -0.1935217 -0.3198991 -0.27916712 -0.2506765 -0.088864535
0.018335517 0.1871672 -0.18764213 -0.030313006 0.204585 0.063082375 -0.016685402 0.3353481
-0.2260827 -0.45637637 0.3985669 -0.15475628 -0.19410081 0.17398344 -0.1688947 -0.09310907
0.24617748 -0.3696529 0.21008575 0.18315776 0.17164814 0.1600226 -0.23363835 -0.14532082
-0.16109417 0.29595345 0.2133118 0.01836175 -0.06800809 0.28941858 0.11434335 0.57983863
-0.104057506 -0.1478714 0.019479956 -0.038365547 0.057841655 -0.15368004 -0.4068662 -0.040450875
00000000: 8c7e a8bd de11 b93e 1e84 4ebe f517 febc
00000010: 489c 7a3d 770b 4cbe 88ae 1c3e ee5a 8ebd
00000020: 0498 8ebe df59 b6bd b467 413e 0e85 03bf
00000030: 663d 213e 6e92 48be e543 553d 616a eb3e
00000040: a410 b73e 7168 8b3e e45f 163e 7472 9ebd
00000050: eea7 d3bd c04b 793e 8f93 8dbe 3a5a eb3c
00000060: 5147 3e3d bd98 553d e2ce e63c 5a58 a7be
00000070: 40ef db3e d1d9 ef3d 9a41 29bd 3338 b7be
00000080: 5182 c83e 190d dbbc a08c f93d fc02 7a3e
00000090: 5567 f23e 23db d7be 33c7 bebe f68b 3f3e
000000a0: b6ed 273e cec7 16be 7596 95be c44a 9fbd
000000b0: 8199 96bd 26f5 9b3e c2ed 1fbd 0c07 dabd
000000c0: 00cb 433e 82dd 19bf d5e2 603e d07a 53be
000000d0: 9f89 06be 77d8 44be f0b7 423e 26f3 61be
000000e0: 885e d5bd 4d60 17be c9ad 6c3e e6cd 50bd
000000f0: 3e49 94bd 0a29 723e f3f8 acbe afae 82bd
00000100: 5187 f6bd 0529 a8be be3e 91be 6a43 c0bd
00000110: 8c39 c0bc 11ed ddbd bda2 acbc d3c5 663e
00000120: f09c da3e b1ae 8b3e ce7e 1abc abc5 723e
00000130: 7caf 96be 4a8b 943e e6d4 543e 9947 04be
00000140: 07cc 3a3e bebf ca3e 0ca0 c43d 9392 3fbd
00000150: c703 b03d 00c0 e23c d3cb 20bd da76 75be
00000160: 471e 4a3e 04aa 7abe bca4 703d 51be 58bd
00000170: 321f 62be c5be 4dbe dab7 e4bd 7477 a2bc
00000180: a1d6 a0be 7848 de3e 8274 e4bd 2c7e 8c3d
00000190: aa5a 373f 6a1f 04bc 0a5f 03bd 7cab ce3d
000001a0: c0c2 0a3e d70b 3dbe 8ab6 ad3e ec84 9b3e
000001b0: b666 8fbe 5d33 b93d 9038 04bd 564d cabe
000001c0: b7e4 243e 53a6 40be a4b0 4cbf 0175 313f
000001d0: 12d3 d0bb 2089 a83e a871 ce3c bd9a 6d3e
000001e0: 186a 653e 7b50 bbbd 1ef4 60be 0708 0e3e
000001f0: 9b95 ffbd a260 d6bd d595 c1be d9dc 53bd
00000200: f9c3 7e3e ccd3 183e 9cc2 4b3e ffc8 413e
00000210: 1e40 d23d c8cd 63be 0b98 79bc c9cb 863d
00000220: 8b6c 3f3e 47ac 45be f637 813e 6201 a0bd
00000230: 764b 513e 5330 babd f38d 7dbe fa10 2fbd
00000240: 01d3 623e 69f0 d43e 150b 2d3e 3e70 5f3d
00000250: 292c 25be cc91 ff3d 0a7d 48bc 82a2 98bd
00000260: 39a2 4bbd 4336 a4bd f21e e43d cf81 833e
00000270: dfd3 e73e 0e33 803e f40a e53e 9a38 07bd
00000280: ae64 18be e7d8 cbbe 9324 39be 4526 aebd
00000290: 7609 9e3e ac60 73bd 7aff 403e 1cc7 81be
000002a0: 423e 9cbe fc43 26be dc70 94be ca2f 9f3e
000002b0: e486 38be 857e 0fbe 5295 3cbe 3d47 38bd
000002c0: 330f 8f3e c518 afbd 05bd a93e ea5a c73d
000002d0: 0aae 12bb 1efb 31be eed3 363e 9a32 f6bc
000002e0: 339a bbbd eda5 923e ede7 803e 8e33 5c3e
000002f0: 97cb afbe 3d25 853e 9ca3 de3d 8df9 8ebc
00000300: b30a 04be c721 04bf 1779 9abe 67b7 213d
00000310: 1654 78be 5eb5 0c3e a234 d93d 1ed5 f43d
00000320: 9ca3 f73c cd4f c43e 5510 10bd 9553 a03e
00000330: 1c74 5d3e 56d1 823d 8328 3dbe ba5f 4dbe
00000340: f9ab 753e 9a3f fdbe 78dc 293e 8d2a 46be
00000350: d1c9 a3be feee 8ebe ac58 80be 9cfe b5bd
00000360: 5e34 963c c2a8 3f3e 4225 40be fb52 f8bc
00000370: bb7e 513e 5531 813d d3af 88bc bfb2 ab3e
00000380: 3982 67be 2aaa e9be f610 cc3e 6e78 1ebe
00000390: 5dc2 46be b728 323e bbf2 2cbe f8af bebd
000003a0: f315 7c3e 2543 bdbe b820 573e b58d 3b3e
000003b0: 88c4 2f3e f7dc 233e e43e 6fbe fbce 14be
000003c0: dff5 24be 3687 973e 696e 5a3e 616b 963c
000003d0: d347 8bbd ac2e 943e d92c ea3d 4e70 143f
000003e0: 1a1c d5bd 9a6b 17be 6e94 9f3c 3125 1dbd
000003f0: 5feb 6c3d 4d5e 1dbe c450 d0be d1af 25bd

network_body._body_endoder.seq_layers.2.bias f4 [128]
-0.008433933 -0.0027568939 0.014224826 -0.01582491 -0.009713641 0.031715736 0.016518082 0.014112717
0.026611926 -0.023000127 -0.046830703 -0.018469082 0.024843806 0.0034228128 0.015017617 0.04094653
-0.021916363 -0.051796123 -0.0142440265 -0.05280957 0.036313288 -0.032161176 -0.04149379 -0.06172844
-0.019324161 0.071653396 -0.005761043 -0.06929798 -0.016015584 -0.005546635 0.033631742 0.054096606
0.06243108 0.06400085 -0.038691983 -0.05392368 0.045780264 -0.012062461 0.0017417119 0.00842149
-0.030906877 -0.04687297 -0.005125123 0.02208956 0.0051801857 -0.02074727 -0.021128275 0.00027046242
0.0632737 0.023853939 0.008427195 -0.015229662 -0.03394599 -0.045829188 -0.038253333 -0.030401492
0.018155681 2.3233835e-05 0.0024505486 0.048730124 0.03265969 -0.0044646435 -0.0014294117 -0.04972379
0.022298116 0.0074389405 -0.035500903 -0.020350525 -0.004829298 -0.01724366 0.0066228546 0.03553569
0.015757466 -0.02370828 0.04522457 0.014879355 0.050221883 -0.03750698 0.011405008 -0.03776848
-0.03671707 0.041396525 0.006962845 0.029386174 -0.007533689 -0.031168777 -0.011668115 0.021616954
-0.048010778 -0.045854226 0.041690424 -0.02068208 -0.015812479 0.024383347 -0.011298813 -0.06329622
0.0012834363 -0.038433697 -0.029263908 0.015164914 0.016015027 -0.035304524 -0.05298415 -0.04907785
-0.08131614 0.011934499 -0.021143192 -0.02604156 0.005002224 0.047268234 0.052168902 0.016927509
-0.066730306 0.021510186 -0.018322717 -0.05451418 -0.028686289 0.052725334 -0.011185459 -0.03998558
0.031811483 0.0023242359 -0.05598547 -0.037157528 -0.048028003 0.03273444 -0.05887782 -0.014624643
00000000: 7b2e 0abc 01ad 34bb 3f0f 693c 3ea3 81bc
00000010: f725 1fbc 5ce8 013d ee50 873c 0639 673c
00000020: 4101 da3c c36a bcbc 8dd1 3fbd 794c 97bc
00000030: 3d85 cb3c 4551 603b 730c 763c 8cb7 273d
00000040: f289 b3bc 2c28 54bd c75f 69bc d94e 58bd
00000050: 3ebd 143d 70bb 03bd 64f5 29bd f6d6 7cbd
00000060: b44d 9ebc 04bf 923d 22c7 bcbb 19ec 8dbd
00000070: 1d33 83bc 8cc0 b5bb 70c1 093d 6794 5d3d
00000080: bbb7 7f3d e112 833d 7c7b 1ebd 14df 5cbd
00000090: 1684 3b3d a1a1 45bc 274a e43a 4afa 093c
000000a0: 6b30 fdbc dffd 3fbd a6f0 a7bb 2af5 b43c
000000b0: 8cbe a93b 2ef6 a9bc 3415 adbc dacc 8d39
000000c0: a495 813d 5669 c33c 3812 0a3c d585 79bc
000000d0: f30a 0bbd 63b7 3bbd 87af 1cbd 8d0c f9bc
000000e0: 39bb 943c 48e6 c237 6299 203b 3d99 473d
000000f0: 2bc6 053d 254c 92bb 195b bbba 2cab 4bbd
00000100: 8aaa b63c 5bc2 f33b 6569 11bd 25b6 a6bc
00000110: 163f 9ebb 9342 8dbc 8804 d93b df8d 113d
00000120: cd15 813c de37 c2bc 663d 393d 8ac8 733c
00000130: 76b5 4d3d eba0 19bd 12dc 3a3c 1fb3 1abd
00000140: a364 16bd 678f 293d 9428 e43b 46bb f03c
00000150: 2add f6bb aa55 ffbc 9f2b 3fbc 0a16 b13c
00000160: f3a6 44bd a4d1 3bbd 94c3 2a3d 776d a9bc
00000170: 2c89 81bc 96bf c73c a81e 39bc 73a1 81bd
00000180: fa38 a83a a76c 1dbd ddba efbc 4276 783c
00000190: f231 833c 7a9b 10bd e805 59bd db05 49bd
000001a0: 1489 a6bd eb88 433c 7d34 adbc 1c55 d5bc
000001b0: b2e9 a33b 569c 413d 0faf 553d 8fab 8a3c
000001c0: e6a9 88bd 2136 b03c 8619 96bc 434a 5fbd
000001d0: 82ff eabc 85f6 573d 3743 37bc ebc7 23bd
000001e0: c24c 023d 3552 183b 0551 65bd 7e32 18bd
000001f0: 03b9 44bd 8c14 063d de29 71bd 339c 6fbc

network_body._body_endoder.seq_layers.2.weight f4 [128, 128]
0.011894098 -0.032805253 -0.08130728 0.16916384 0.117721364 0.11256521 -0.059573304 0.10041297
-0.028911289 0.080108695 0.00326813 0.017433142 0.09401765 0.025495598 -0.16068156 -0.009029774
0.01803507 -0.07401357 -0.03346913 -0.18839659 0.17120862 0.009637138 -0.09729102 0.03799658
0.04682489 0.0060434374 0.061490797 0.02886083 0.0024061645 -0.0621706 0.0899569 -0.10905166
-0.082169764 -0.027421985 0.031411164 -0.01880393 -0.12428139 -0.15099435 -0.037181932 -0.020080848
-0.07458746 -0.015475848 -0.11162331 0.02696354 -0.10707612 0.043994233 -0.15626393 0.21911955
-0.06818485 -0.024408806 -0.029614497 0.01059014 0.069373764 0.049113594 0.13065173 0.019397665
-0.02170119 0.087235525 -0.027845863 -0.014357083 -0.0906069 -0.053213373 0.08540229 0.05414207
-0.14982541 -0.0069459053 0.07625259 -0.001822062 0.12097813 -0.0030360955 0.08027445 -0.19696243
-0.055001274 -0.02122067 -0.021913275 0.057999197 -0.00919327 -0.0034397366 0.11366155 0.055158217
-0.09461194 -0.045611534 0.025371207 0.15224233 -0.12564023 -0.10187833 -0.012273969 -0.069155
0.07725778 -0.01825777 -0.08873497 0.21538809 0.051224895 0.054773584 0.09420709 0.011005984
-0.011954833 -0.026798148 -0.005824918 0.0893939 -0.11038975 -0.14651729 -0.10973702 -0.08339862
-0.017588593 0.070195094 0.17522033 0.04361128 0.031415813 0.028366681 0.14708357 0.08312841
-0.07485092 -0.109161116 0.12383928 -0.048522875 -0.10575528 -0.09571163 -0.046282236 0.029233672
0.047486946 0.18377154 -0.10033011 -0.016042259 0.04374182 0.12901737 0.06775503 -0.018593933
-0.019584637 -0.10160681 -0.00034745183 -0.030676413 0.25755048 0.018478515 0.06849452 0.10261149
0.15432914 -0.07335896 0.08637412 -0.10121408 0.04886518 0.035121504 -0.22482853 -0.19129084
-0.07452454 0.1740453 0.0029508765 0.08490643 0.00784609 -0.013158894 -0.04135419 -0.16375111
0.07217502 0.14112864 0.095720194 -0.0405431 -0.12401368 -0.18318 -0.020494714 -0.02253237
-0.16301402 0.051242486 0.021174753 -0.07488655 -0.047879267 0.037312564 -0.06922131 -0.18161368
0.1736527 0.009499866 0.043377228 -0.02489867 -0.104155004 -0.12799202 0.1196178 -0.0033054638
-0.01870442 -0.07531488 -0.030317994 0.03261023 -0.024038134 0.1098803 0.1756553 0.0421954
0.1492292 0.051073205 0.008068114 0.17812741 0.042018957 -0.03288981 0.13945408 0.10628801
0.11723097 0.030214053 -0.030189013 -0.025780318 -0.022659117 0.21983927 0.07153077 0.06948539
-0.07015611 0.07069436 -0.14114761 0.1601997 0.10350919 -0.06574238 -0.059106648 0.018130189
0.10965082 0.11702954 0.07747994 -0.13973692 -0.17670241 -0.18415073 0.025632782 -0.04984859
0.16770104 0.14465283 0.09721378 0.015777215 0.12649478 -0.13584484 0.04093637 -0.048332233
-0.053180058 0.07344392 -0.021982346 0.030577308 0.027909847 -0.10114923 -0.006520423 0.03044533
0.07245993 0.070590444 -0.003242127 -0.18720096 -0.00902588 0.14822029 0.05308719 -0.024687203
-0.1211213 -0.11668325 -0.11930061 -0.002611765 0.06371548 -0.15809226 0.071871795 0.016572354
-0.08816921 0.0835316 -0.058789395 0.015225533 -0.033320196 -0.11841777 -0.13360338 0.16344044
00000000: 76df 423c cd5e 06bd 6e84 a6bd 4939 2d3e
00000010: e617 f13d 9788 e63d 2303 74bd 51a5 cd3d
00000020: 5ed7 ecbc 0710 a43d 1f2e 563b f3cf 8e3c
00000030: 538c c03d 25dc d03c b589 24be 9ef1 13bc
00000040: 48be 933c 6d94 97bd ed16 09bd 09eb 40be
00000050: 5051 2f3e 16e5 1d3c 8440 c7bd 4da2 1b3d
00000060: 75cb 3f3d 0708 c63b c6dd 7b3d 8c6d ec3c
00000070: beb0 1d3b 99a6 7ebd 533b b83d 7a56 dfbd
00000080: 9f48 a8bd 12a4 e0bc fea8 003d b30a 9abc
00000090: 3e87 febd 439e 1abe 154c 18bd 9780 a4bc
000000a0: 4fc1 98bd 698e 7dbc c39a e4bd a4e2 dc3c
000000b0: ba4a dbbd 4c33 343d a703 20be e060 603e
000000c0: 80a4 8bbd faf4 c7bc 1a9a f2bc 4482 2d3c
000000d0: d513 8e3d 562b 493d 91c9 053e dae7 9e3c
000000e0: b2c6 b1bc 8aa8 b23d 021d e4bc f839 6bbc
000000f0: 1c90 b9bd 44f6 59bd 65e7 ae3d 13c4 5d3d
00000100: d56b 19be 7a9a e3bb 512a 9c3d 41d2 eeba
00000110: 62c3 f73d 3bf9 46bb ee66 a43d 85b0 49be
00000120: 0449 61bd f8d6 adbc 7883 b3bc 9190 6d3d
00000130: 5e9f 16bc 346d 61bb 63c7 e83d 95ed 613d
00000140: e8c3 c1bd 29d3 3abd 47d7 cf3c 6ae5 1b3e
00000150: d5a7 00be 96a5 d0bd c218 49bc 23a1 8dbd
00000160: 5439 9e3d 5291 95bc aeba b5bd b28e 5c3e
00000170: 32d1 513d 445a 603d a6ef c03d 7152 343c
00000180: 34de 43bc ca87 dbbc f4de bebb 2614 b73d
00000190: 0514 e2bd a108 16be cebd e0bd e5cc aabd
000001a0: f415 90bc 72c2 8f3d f56c 333e bea1 323d
000001b0: dead 003d 3e61 e83c 139d 163e 3a3f aa3d
000001c0: 704b 99bd dd8f dfbd 739f fd3d ecbf 46bd
000001d0: 3996 d8bd 7604 c4bd 7192 3dbd 747b ef3c
000001e0: ac81 423d 9b2e 3c3e df79 cdbd 0e6b 83bc
000001f0: 9f2a 333d 211d 043e 26c3 8a3d 4e52 98bc
00000200: f66f a0bc 3b17 d0bd 322a b6b9 1a4d fbbc
00000210: a8dd 833e 4160 973c db46 8c3d f925 d23d
00000220: 7508 1e3e 393d 96bd eae4 b03d 5449 cfbd
00000230: db26 483d 91db 0f3d 7339 66be bfe1 43be
00000240: 52a0 98bd ee38 323e 7e63 413b 6ce3 ad3d
00000250: e38c 003c 6798 57bc 0363 29bd 5fae 27be
00000260: 7fd0 933d 0784 103e f308 c43d 8610 26bd
00000270: e2fa fdbd 8a93 3bbe 88e4 a7bc ce95 b8bc
00000280: 26ed 26be a4e3 513d ad76 ad3c 1f5e 99bd
00000290: 0d1d 44bd 0fd5 183d e7c3 8dbd f0f8 39be
000002a0: 03d2 313e 53a5 1b3c 52ac 313d 4cf8 cbbc
000002b0: 384f d5bd 5710 03be 2dfa f43d 7ba0 58bb
000002c0: 033a 99bc b03e 9abd 715d f8bc 4e92 053d
000002d0: 9feb c4bc ec08 e13d fcde 333e 15d5 2c3d
000002e0: 8acf 183e 2332 513d 1f30 043c 0867 363e
000002f0: 121c 2c3d 77b7 06bd 0dcd 0e3e 87ad d93d
00000300: ca16 f03d 7683 f73c f34e f7bc 3f31 d3bc
00000310: 9d9f b9bc 8c1d 613e b97e 923d 5b4e 8e3d
00000320: 02ae 8fbd 34c8 903d 0089 10be 640b 243e
00000330: a0fc d33d f1a3 86bd d019 72bd c385 943c
00000340: 9c90 e03d 2fad ef3d cead 9e3d 3217 0fbe
00000350: 7af1 34be 0292 3cbe d7fb d13c 092e 4cbd
00000360: d2b9 2b3e df1f 143e 0518 c73d 383f 813c
00000370: d987 013e e91a 0bbe e5ac 273d 05f8 45bd
00000380: 55d3 59bd c469 963d 5214 b4bc 437d fa3c
00000390: 31a3 e43c 5427 cfbd 46a9 d5bb 7c68 f93c
000003a0: df65 943d b991 903d dd79 54bb 9cb1 3fbe
000003b0: 49e1 13bc 0fc7 173e f471 593d d13c cabc
000003c0: 720e f8bd a1f7 eebd e153 f4bd 252a 2bbb
000003d0: 437d 823d f0e2 21be 8531 933d bfc2 873c
000003e0: 0f92 b4bd 9e12 ab3d 26cd 70bd 8474 793c
000003f0: c27a 08bd 0485 f2bd 53cf 08be ee5c 273e

network_body.observation_encoder.processors.0.normalizer.running_mean f4 [20]
0.014544872 0.0032515721 0.9286513 0.934492 0.011835874 0.0029919122 0.85499686 0.8595466
0.013289203 0.0025152212 0.8254304 0.8297542 0.011793251 0.002895024 0.93307346 0.93759006
0.01413407 0.00394917 0.84523433 0.8496392
00000000: 9d4d 6e3c 5418 553b 17bc 6d3f de3a 6f3f
00000010: 41eb 413c f513 443b 13e1 5a3f 3f0b 5c3f
00000020: f5ba 593c 69d6 243b 684f 533f c56a 543f
00000030: 7b38 413c 71ba 3d3b e7dd 6e3f e705 703f
00000040: 9692 673c 0a68 813b 4761 583f f481 593f
